layer     filters    size              input                output
    0 conv     32  3 x 3 / 1  1664 x1664 x   3   ->  1664 x1664 x  32  4.785 BFLOPs
    1 conv     64  3 x 3 / 2  1664 x1664 x  32   ->   832 x 832 x  64  25.518 BFLOPs
    2 conv     32  1 x 1 / 1   832 x 832 x  64   ->   832 x 832 x  32  2.835 BFLOPs
    3 conv     64  3 x 3 / 1   832 x 832 x  32   ->   832 x 832 x  64  25.518 BFLOPs
    4 res    1                 832 x 832 x  64   ->   832 x 832 x  64
    5 conv    128  3 x 3 / 2   832 x 832 x  64   ->   416 x 416 x 128  25.518 BFLOPs
    6 conv     64  1 x 1 / 1   416 x 416 x 128   ->   416 x 416 x  64  2.835 BFLOPs
    7 conv    128  3 x 3 / 1   416 x 416 x  64   ->   416 x 416 x 128  25.518 BFLOPs
    8 res    5                 416 x 416 x 128   ->   416 x 416 x 128
    9 conv     64  1 x 1 / 1   416 x 416 x 128   ->   416 x 416 x  64  2.835 BFLOPs
   10 conv    128  3 x 3 / 1   416 x 416 x  64   ->   416 x 416 x 128  25.518 BFLOPs
   11 res    8                 416 x 416 x 128   ->   416 x 416 x 128
   12 conv    256  3 x 3 / 2   416 x 416 x 128   ->   208 x 208 x 256  25.518 BFLOPs
   13 conv    128  1 x 1 / 1   208 x 208 x 256   ->   208 x 208 x 128  2.835 BFLOPs
   14 conv    256  3 x 3 / 1   208 x 208 x 128   ->   208 x 208 x 256  25.518 BFLOPs
   15 res   12                 208 x 208 x 256   ->   208 x 208 x 256
   16 conv    128  1 x 1 / 1   208 x 208 x 256   ->   208 x 208 x 128  2.835 BFLOPs
   17 conv    256  3 x 3 / 1   208 x 208 x 128   ->   208 x 208 x 256  25.518 BFLOPs
   18 res   15                 208 x 208 x 256   ->   208 x 208 x 256
   19 conv    128  1 x 1 / 1   208 x 208 x 256   ->   208 x 208 x 128  2.835 BFLOPs
   20 conv    256  3 x 3 / 1   208 x 208 x 128   ->   208 x 208 x 256  25.518 BFLOPs
   21 res   18                 208 x 208 x 256   ->   208 x 208 x 256
   22 conv    128  1 x 1 / 1   208 x 208 x 256   ->   208 x 208 x 128  2.835 BFLOPs
   23 conv    256  3 x 3 / 1   208 x 208 x 128   ->   208 x 208 x 256  25.518 BFLOPs
   24 res   21                 208 x 208 x 256   ->   208 x 208 x 256
   25 conv    128  1 x 1 / 1   208 x 208 x 256   ->   208 x 208 x 128  2.835 BFLOPs
   26 conv    256  3 x 3 / 1   208 x 208 x 128   ->   208 x 208 x 256  25.518 BFLOPs
   27 res   24                 208 x 208 x 256   ->   208 x 208 x 256
   28 conv    128  1 x 1 / 1   208 x 208 x 256   ->   208 x 208 x 128  2.835 BFLOPs
   29 conv    256  3 x 3 / 1   208 x 208 x 128   ->   208 x 208 x 256  25.518 BFLOPs
   30 res   27                 208 x 208 x 256   ->   208 x 208 x 256
   31 conv    128  1 x 1 / 1   208 x 208 x 256   ->   208 x 208 x 128  2.835 BFLOPs
   32 conv    256  3 x 3 / 1   208 x 208 x 128   ->   208 x 208 x 256  25.518 BFLOPs
   33 res   30                 208 x 208 x 256   ->   208 x 208 x 256
   34 conv    128  1 x 1 / 1   208 x 208 x 256   ->   208 x 208 x 128  2.835 BFLOPs
   35 conv    256  3 x 3 / 1   208 x 208 x 128   ->   208 x 208 x 256  25.518 BFLOPs
   36 res   33                 208 x 208 x 256   ->   208 x 208 x 256
   37 conv    512  3 x 3 / 2   208 x 208 x 256   ->   104 x 104 x 512  25.518 BFLOPs
   38 conv    256  1 x 1 / 1   104 x 104 x 512   ->   104 x 104 x 256  2.835 BFLOPs
   39 conv    512  3 x 3 / 1   104 x 104 x 256   ->   104 x 104 x 512  25.518 BFLOPs
   40 res   37                 104 x 104 x 512   ->   104 x 104 x 512
   41 conv    256  1 x 1 / 1   104 x 104 x 512   ->   104 x 104 x 256  2.835 BFLOPs
   42 conv    512  3 x 3 / 1   104 x 104 x 256   ->   104 x 104 x 512  25.518 BFLOPs
   43 res   40                 104 x 104 x 512   ->   104 x 104 x 512
   44 conv    256  1 x 1 / 1   104 x 104 x 512   ->   104 x 104 x 256  2.835 BFLOPs
   45 conv    512  3 x 3 / 1   104 x 104 x 256   ->   104 x 104 x 512  25.518 BFLOPs
   46 res   43                 104 x 104 x 512   ->   104 x 104 x 512
   47 conv    256  1 x 1 / 1   104 x 104 x 512   ->   104 x 104 x 256  2.835 BFLOPs
   48 conv    512  3 x 3 / 1   104 x 104 x 256   ->   104 x 104 x 512  25.518 BFLOPs
   49 res   46                 104 x 104 x 512   ->   104 x 104 x 512
   50 conv    256  1 x 1 / 1   104 x 104 x 512   ->   104 x 104 x 256  2.835 BFLOPs
   51 conv    512  3 x 3 / 1   104 x 104 x 256   ->   104 x 104 x 512  25.518 BFLOPs
   52 res   49                 104 x 104 x 512   ->   104 x 104 x 512
   53 conv    256  1 x 1 / 1   104 x 104 x 512   ->   104 x 104 x 256  2.835 BFLOPs
   54 conv    512  3 x 3 / 1   104 x 104 x 256   ->   104 x 104 x 512  25.518 BFLOPs
   55 res   52                 104 x 104 x 512   ->   104 x 104 x 512
   56 conv    256  1 x 1 / 1   104 x 104 x 512   ->   104 x 104 x 256  2.835 BFLOPs
   57 conv    512  3 x 3 / 1   104 x 104 x 256   ->   104 x 104 x 512  25.518 BFLOPs
   58 res   55                 104 x 104 x 512   ->   104 x 104 x 512
   59 conv    256  1 x 1 / 1   104 x 104 x 512   ->   104 x 104 x 256  2.835 BFLOPs
   60 conv    512  3 x 3 / 1   104 x 104 x 256   ->   104 x 104 x 512  25.518 BFLOPs
   61 res   58                 104 x 104 x 512   ->   104 x 104 x 512
   62 conv   1024  3 x 3 / 2   104 x 104 x 512   ->    52 x  52 x1024  25.518 BFLOPs
   63 conv    512  1 x 1 / 1    52 x  52 x1024   ->    52 x  52 x 512  2.835 BFLOPs
   64 conv   1024  3 x 3 / 1    52 x  52 x 512   ->    52 x  52 x1024  25.518 BFLOPs
   65 res   62                  52 x  52 x1024   ->    52 x  52 x1024
   66 conv    512  1 x 1 / 1    52 x  52 x1024   ->    52 x  52 x 512  2.835 BFLOPs
   67 conv   1024  3 x 3 / 1    52 x  52 x 512   ->    52 x  52 x1024  25.518 BFLOPs
   68 res   65                  52 x  52 x1024   ->    52 x  52 x1024
   69 conv    512  1 x 1 / 1    52 x  52 x1024   ->    52 x  52 x 512  2.835 BFLOPs
   70 conv   1024  3 x 3 / 1    52 x  52 x 512   ->    52 x  52 x1024  25.518 BFLOPs
   71 res   68                  52 x  52 x1024   ->    52 x  52 x1024
   72 conv    512  1 x 1 / 1    52 x  52 x1024   ->    52 x  52 x 512  2.835 BFLOPs
   73 conv   1024  3 x 3 / 1    52 x  52 x 512   ->    52 x  52 x1024  25.518 BFLOPs
   74 res   71                  52 x  52 x1024   ->    52 x  52 x1024
   75 conv    512  1 x 1 / 1    52 x  52 x1024   ->    52 x  52 x 512  2.835 BFLOPs
   76 conv   1024  3 x 3 / 1    52 x  52 x 512   ->    52 x  52 x1024  25.518 BFLOPs
   77 conv    512  1 x 1 / 1    52 x  52 x1024   ->    52 x  52 x 512  2.835 BFLOPs
   78 conv   1024  3 x 3 / 1    52 x  52 x 512   ->    52 x  52 x1024  25.518 BFLOPs
   79 conv    512  1 x 1 / 1    52 x  52 x1024   ->    52 x  52 x 512  2.835 BFLOPs
   80 conv   1024  3 x 3 / 1    52 x  52 x 512   ->    52 x  52 x1024  25.518 BFLOPs
   81 conv    255  1 x 1 / 1    52 x  52 x1024   ->    52 x  52 x 255  1.412 BFLOPs
   82 yolo
   83 route  79
   84 conv    256  1 x 1 / 1    52 x  52 x 512   ->    52 x  52 x 256  0.709 BFLOPs
   85 upsample            2x    52 x  52 x 256   ->   104 x 104 x 256
   86 route  85 61
   87 conv    256  1 x 1 / 1   104 x 104 x 768   ->   104 x 104 x 256  4.253 BFLOPs
   88 conv    512  3 x 3 / 1   104 x 104 x 256   ->   104 x 104 x 512  25.518 BFLOPs
   89 conv    256  1 x 1 / 1   104 x 104 x 512   ->   104 x 104 x 256  2.835 BFLOPs
   90 conv    512  3 x 3 / 1   104 x 104 x 256   ->   104 x 104 x 512  25.518 BFLOPs
   91 conv    256  1 x 1 / 1   104 x 104 x 512   ->   104 x 104 x 256  2.835 BFLOPs
   92 conv    512  3 x 3 / 1   104 x 104 x 256   ->   104 x 104 x 512  25.518 BFLOPs
   93 conv    255  1 x 1 / 1   104 x 104 x 512   ->   104 x 104 x 255  2.824 BFLOPs
   94 yolo
   95 route  91
   96 conv    128  1 x 1 / 1   104 x 104 x 256   ->   104 x 104 x 128  0.709 BFLOPs
   97 upsample            2x   104 x 104 x 128   ->   208 x 208 x 128
   98 route  97 36
   99 conv    128  1 x 1 / 1   208 x 208 x 384   ->   208 x 208 x 128  4.253 BFLOPs
  100 conv    256  3 x 3 / 1   208 x 208 x 128   ->   208 x 208 x 256  25.518 BFLOPs
  101 conv    128  1 x 1 / 1   208 x 208 x 256   ->   208 x 208 x 128  2.835 BFLOPs
  102 conv    256  3 x 3 / 1   208 x 208 x 128   ->   208 x 208 x 256  25.518 BFLOPs
  103 conv    128  1 x 1 / 1   208 x 208 x 256   ->   208 x 208 x 128  2.835 BFLOPs
  104 conv    256  3 x 3 / 1   208 x 208 x 128   ->   208 x 208 x 256  25.518 BFLOPs
  105 conv    255  1 x 1 / 1   208 x 208 x 256   ->   208 x 208 x 255  5.649 BFLOPs
  106 yolo
Loading weights from darknet53.conv.74...Done!
