layer     filters    size              input                output
    0 conv     32  3 x 3 / 1  1248 x1248 x   3   ->  1248 x1248 x  32  2.691 BFLOPs
    1 conv     64  3 x 3 / 2  1248 x1248 x  32   ->   624 x 624 x  64  14.354 BFLOPs
    2 conv     32  1 x 1 / 1   624 x 624 x  64   ->   624 x 624 x  32  1.595 BFLOPs
    3 conv     64  3 x 3 / 1   624 x 624 x  32   ->   624 x 624 x  64  14.354 BFLOPs
    4 res    1                 624 x 624 x  64   ->   624 x 624 x  64
    5 conv    128  3 x 3 / 2   624 x 624 x  64   ->   312 x 312 x 128  14.354 BFLOPs
    6 conv     64  1 x 1 / 1   312 x 312 x 128   ->   312 x 312 x  64  1.595 BFLOPs
    7 conv    128  3 x 3 / 1   312 x 312 x  64   ->   312 x 312 x 128  14.354 BFLOPs
    8 res    5                 312 x 312 x 128   ->   312 x 312 x 128
    9 conv     64  1 x 1 / 1   312 x 312 x 128   ->   312 x 312 x  64  1.595 BFLOPs
   10 conv    128  3 x 3 / 1   312 x 312 x  64   ->   312 x 312 x 128  14.354 BFLOPs
   11 res    8                 312 x 312 x 128   ->   312 x 312 x 128
   12 conv    256  3 x 3 / 2   312 x 312 x 128   ->   156 x 156 x 256  14.354 BFLOPs
   13 conv    128  1 x 1 / 1   156 x 156 x 256   ->   156 x 156 x 128  1.595 BFLOPs
   14 conv    256  3 x 3 / 1   156 x 156 x 128   ->   156 x 156 x 256  14.354 BFLOPs
   15 res   12                 156 x 156 x 256   ->   156 x 156 x 256
   16 conv    128  1 x 1 / 1   156 x 156 x 256   ->   156 x 156 x 128  1.595 BFLOPs
   17 conv    256  3 x 3 / 1   156 x 156 x 128   ->   156 x 156 x 256  14.354 BFLOPs
   18 res   15                 156 x 156 x 256   ->   156 x 156 x 256
   19 conv    128  1 x 1 / 1   156 x 156 x 256   ->   156 x 156 x 128  1.595 BFLOPs
   20 conv    256  3 x 3 / 1   156 x 156 x 128   ->   156 x 156 x 256  14.354 BFLOPs
   21 res   18                 156 x 156 x 256   ->   156 x 156 x 256
   22 conv    128  1 x 1 / 1   156 x 156 x 256   ->   156 x 156 x 128  1.595 BFLOPs
   23 conv    256  3 x 3 / 1   156 x 156 x 128   ->   156 x 156 x 256  14.354 BFLOPs
   24 res   21                 156 x 156 x 256   ->   156 x 156 x 256
   25 conv    128  1 x 1 / 1   156 x 156 x 256   ->   156 x 156 x 128  1.595 BFLOPs
   26 conv    256  3 x 3 / 1   156 x 156 x 128   ->   156 x 156 x 256  14.354 BFLOPs
   27 res   24                 156 x 156 x 256   ->   156 x 156 x 256
   28 conv    128  1 x 1 / 1   156 x 156 x 256   ->   156 x 156 x 128  1.595 BFLOPs
   29 conv    256  3 x 3 / 1   156 x 156 x 128   ->   156 x 156 x 256  14.354 BFLOPs
   30 res   27                 156 x 156 x 256   ->   156 x 156 x 256
   31 conv    128  1 x 1 / 1   156 x 156 x 256   ->   156 x 156 x 128  1.595 BFLOPs
   32 conv    256  3 x 3 / 1   156 x 156 x 128   ->   156 x 156 x 256  14.354 BFLOPs
   33 res   30                 156 x 156 x 256   ->   156 x 156 x 256
   34 conv    128  1 x 1 / 1   156 x 156 x 256   ->   156 x 156 x 128  1.595 BFLOPs
   35 conv    256  3 x 3 / 1   156 x 156 x 128   ->   156 x 156 x 256  14.354 BFLOPs
   36 res   33                 156 x 156 x 256   ->   156 x 156 x 256
   37 conv    512  3 x 3 / 2   156 x 156 x 256   ->    78 x  78 x 512  14.354 BFLOPs
   38 conv    256  1 x 1 / 1    78 x  78 x 512   ->    78 x  78 x 256  1.595 BFLOPs
   39 conv    512  3 x 3 / 1    78 x  78 x 256   ->    78 x  78 x 512  14.354 BFLOPs
   40 res   37                  78 x  78 x 512   ->    78 x  78 x 512
   41 conv    256  1 x 1 / 1    78 x  78 x 512   ->    78 x  78 x 256  1.595 BFLOPs
   42 conv    512  3 x 3 / 1    78 x  78 x 256   ->    78 x  78 x 512  14.354 BFLOPs
   43 res   40                  78 x  78 x 512   ->    78 x  78 x 512
   44 conv    256  1 x 1 / 1    78 x  78 x 512   ->    78 x  78 x 256  1.595 BFLOPs
   45 conv    512  3 x 3 / 1    78 x  78 x 256   ->    78 x  78 x 512  14.354 BFLOPs
   46 res   43                  78 x  78 x 512   ->    78 x  78 x 512
   47 conv    256  1 x 1 / 1    78 x  78 x 512   ->    78 x  78 x 256  1.595 BFLOPs
   48 conv    512  3 x 3 / 1    78 x  78 x 256   ->    78 x  78 x 512  14.354 BFLOPs
   49 res   46                  78 x  78 x 512   ->    78 x  78 x 512
   50 conv    256  1 x 1 / 1    78 x  78 x 512   ->    78 x  78 x 256  1.595 BFLOPs
   51 conv    512  3 x 3 / 1    78 x  78 x 256   ->    78 x  78 x 512  14.354 BFLOPs
   52 res   49                  78 x  78 x 512   ->    78 x  78 x 512
   53 conv    256  1 x 1 / 1    78 x  78 x 512   ->    78 x  78 x 256  1.595 BFLOPs
   54 conv    512  3 x 3 / 1    78 x  78 x 256   ->    78 x  78 x 512  14.354 BFLOPs
   55 res   52                  78 x  78 x 512   ->    78 x  78 x 512
   56 conv    256  1 x 1 / 1    78 x  78 x 512   ->    78 x  78 x 256  1.595 BFLOPs
   57 conv    512  3 x 3 / 1    78 x  78 x 256   ->    78 x  78 x 512  14.354 BFLOPs
   58 res   55                  78 x  78 x 512   ->    78 x  78 x 512
   59 conv    256  1 x 1 / 1    78 x  78 x 512   ->    78 x  78 x 256  1.595 BFLOPs
   60 conv    512  3 x 3 / 1    78 x  78 x 256   ->    78 x  78 x 512  14.354 BFLOPs
   61 res   58                  78 x  78 x 512   ->    78 x  78 x 512
   62 conv   1024  3 x 3 / 2    78 x  78 x 512   ->    39 x  39 x1024  14.354 BFLOPs
   63 conv    512  1 x 1 / 1    39 x  39 x1024   ->    39 x  39 x 512  1.595 BFLOPs
   64 conv   1024  3 x 3 / 1    39 x  39 x 512   ->    39 x  39 x1024  14.354 BFLOPs
   65 res   62                  39 x  39 x1024   ->    39 x  39 x1024
   66 conv    512  1 x 1 / 1    39 x  39 x1024   ->    39 x  39 x 512  1.595 BFLOPs
   67 conv   1024  3 x 3 / 1    39 x  39 x 512   ->    39 x  39 x1024  14.354 BFLOPs
   68 res   65                  39 x  39 x1024   ->    39 x  39 x1024
   69 conv    512  1 x 1 / 1    39 x  39 x1024   ->    39 x  39 x 512  1.595 BFLOPs
   70 conv   1024  3 x 3 / 1    39 x  39 x 512   ->    39 x  39 x1024  14.354 BFLOPs
   71 res   68                  39 x  39 x1024   ->    39 x  39 x1024
   72 conv    512  1 x 1 / 1    39 x  39 x1024   ->    39 x  39 x 512  1.595 BFLOPs
   73 conv   1024  3 x 3 / 1    39 x  39 x 512   ->    39 x  39 x1024  14.354 BFLOPs
   74 res   71                  39 x  39 x1024   ->    39 x  39 x1024
   75 conv    512  1 x 1 / 1    39 x  39 x1024   ->    39 x  39 x 512  1.595 BFLOPs
   76 conv   1024  3 x 3 / 1    39 x  39 x 512   ->    39 x  39 x1024  14.354 BFLOPs
   77 conv    512  1 x 1 / 1    39 x  39 x1024   ->    39 x  39 x 512  1.595 BFLOPs
   78 conv   1024  3 x 3 / 1    39 x  39 x 512   ->    39 x  39 x1024  14.354 BFLOPs
   79 conv    512  1 x 1 / 1    39 x  39 x1024   ->    39 x  39 x 512  1.595 BFLOPs
   80 conv   1024  3 x 3 / 1    39 x  39 x 512   ->    39 x  39 x1024  14.354 BFLOPs
   81 conv    255  1 x 1 / 1    39 x  39 x1024   ->    39 x  39 x 255  0.794 BFLOPs
   82 yolo
   83 route  79
   84 conv    256  1 x 1 / 1    39 x  39 x 512   ->    39 x  39 x 256  0.399 BFLOPs
   85 upsample            2x    39 x  39 x 256   ->    78 x  78 x 256
   86 route  85 61
   87 conv    256  1 x 1 / 1    78 x  78 x 768   ->    78 x  78 x 256  2.392 BFLOPs
   88 conv    512  3 x 3 / 1    78 x  78 x 256   ->    78 x  78 x 512  14.354 BFLOPs
   89 conv    256  1 x 1 / 1    78 x  78 x 512   ->    78 x  78 x 256  1.595 BFLOPs
   90 conv    512  3 x 3 / 1    78 x  78 x 256   ->    78 x  78 x 512  14.354 BFLOPs
   91 conv    256  1 x 1 / 1    78 x  78 x 512   ->    78 x  78 x 256  1.595 BFLOPs
   92 conv    512  3 x 3 / 1    78 x  78 x 256   ->    78 x  78 x 512  14.354 BFLOPs
   93 conv    255  1 x 1 / 1    78 x  78 x 512   ->    78 x  78 x 255  1.589 BFLOPs
   94 yolo
   95 route  91
   96 conv    128  1 x 1 / 1    78 x  78 x 256   ->    78 x  78 x 128  0.399 BFLOPs
   97 upsample            2x    78 x  78 x 128   ->   156 x 156 x 128
   98 route  97 36
   99 conv    128  1 x 1 / 1   156 x 156 x 384   ->   156 x 156 x 128  2.392 BFLOPs
  100 conv    256  3 x 3 / 1   156 x 156 x 128   ->   156 x 156 x 256  14.354 BFLOPs
  101 conv    128  1 x 1 / 1   156 x 156 x 256   ->   156 x 156 x 128  1.595 BFLOPs
  102 conv    256  3 x 3 / 1   156 x 156 x 128   ->   156 x 156 x 256  14.354 BFLOPs
  103 conv    128  1 x 1 / 1   156 x 156 x 256   ->   156 x 156 x 128  1.595 BFLOPs
  104 conv    256  3 x 3 / 1   156 x 156 x 128   ->   156 x 156 x 256  14.354 BFLOPs
  105 conv    255  1 x 1 / 1   156 x 156 x 256   ->   156 x 156 x 255  3.177 BFLOPs
  106 yolo
Loading weights from darknet53.conv.74...Done!
